HW2/p2/experiment/mynet_2024_04_17_00_35_26_sgd_pre_da/model/model_best.pth (torch, 251207 bytes, 10 tensors)

conv1.0.weight f4 [6, 3, 5, 5]
000000 dc 08 9c be 40 c8 0d bf 28 1f b6 be d4 a0 e1 be
       -0.3047551 -0.5538368 -0.35570645 -0.44068015
000010 40 34 60 bf f1 fc 80 be ee 13 22 bf f6 dc 42 bf
       -0.8757973 -0.2519298 -0.6331166 -0.7611841
000020 c4 2b 0a bf dd bd 80 bd 93 a3 2c 3e 83 79 4a 3e
       -0.5397303 -0.062862135 0.16859274 0.19772916
000030 be 26 e8 bd 61 18 0b bd e8 fa a6 3e a7 81 29 3e
       -0.113355145 -0.033958796 0.326133 0.16553365
000040 66 89 45 3f 27 3c 35 3f e8 9a ce 3e 13 61 b9 3e
       0.7716278 0.7079491 0.4035256 0.36206874
000050 d5 8b af 3e 9f 40 86 3c eb e2 1c be 92 e3 92 3e
       0.3428637 0.016388236 -0.15320937 0.28689247
000060 ae 82 8b 3d dc 5b a5 3e 0b 21 86 3e ac 9f 0e 3f
       0.068120345 0.32296646 0.26197085 0.5571239
000070 5e 29 dc 3e c9 c8 31 3e c6 f1 26 3e f9 67 aa bd
       0.4300031 0.1736175 0.16303167 -0.083206125
000080 d2 fa 33 be 33 e8 98 bd 87 eb 03 3f d7 ca be 3d
       -0.17576149 -0.074661635 0.5153126 0.093160324
000090 ee 68 74 3e 9d 7a 9e 3e d0 ee 86 3c 03 da e8 3e
       0.23868152 0.30952922 0.016471297 0.4547883
0000a0 8e 40 77 be b0 c4 c1 3e 9f 46 05 3f ca e6 cb 3e
       -0.2414572 0.37845373 0.52060884 0.39824516
0000b0 6f eb e1 bd bc 15 49 be a9 a2 b1 be ac 06 8f be
       -0.110312335 -0.19637197 -0.34694412 -0.27934778
0000c0 8d ce b7 3c 70 1d 03 be 56 8f cc 3e 73 e6 ff 3d
       0.022437358 -0.12804198 0.39953107 0.124951266
0000d0 52 62 92 3e fb 6b 82 3e d2 71 93 be 62 86 07 3d
       0.28590637 0.25473008 -0.28797776 0.03308714
0000e0 ca cf db be ca e7 e4 be b5 d5 f1 be cb 4a 2b 3e
       -0.42931968 -0.4470809 -0.47233358 0.1672775
0000f0 e0 63 6d 3e 1b e3 4e 3d cf 6e df bd 4d 5e 82 be
       0.2318263 0.050509553 -0.10909807 -0.2546257
000100 bd e3 1b be a8 d0 99 be 54 32 ce 3e de 0a 4e 3e
       -0.15223594 -0.30042005 0.40272772 0.20121333
000110 b5 58 d2 3d 4a 9c 6f be 01 76 fe 3c c8 0a 49 be
       0.10270826 -0.23399463 0.031062128 -0.19633019
000120 8c 0e a0 be 59 b9 9f 3d 13 36 c6 be 9e 49 fd 3d
       -0.31261098 0.07799024 -0.3871313 0.12367557
000130 6c fe 98 bc ec 14 a5 be 6c aa 9c be 04 52 8a be
       -0.018676005 -0.32242525 -0.30598772 -0.27015698
000140 38 9c 3f bb 22 33 b8 be cc 5b 07 bf 3b 17 c0 be
       -0.00292374 -0.3597651 -0.52874446 -0.37517723
000150 74 5e 39 be 11 23 b9 bd 0e 51 15 bf 99 fe 5f bf
       -0.18102437 -0.090398915 -0.58326805 -0.8749786
000160 13 d4 3d bf 19 b3 0a bf 89 c1 fe 3e 51 ec d5 3d
       -0.74151725 -0.5417953 0.4975703 0.104454644
000170 38 9e b4 bd 02 d7 98 be 1c e8 20 be 8f 00 f1 3e
       -0.0881924 -0.29851538 -0.15713543 0.4707074
000180 97 94 a5 3e 97 84 a1 3e 40 24 a1 3e 03 68 0f 3e
       0.32339928 0.3154647 0.3147297 0.14004521
000190 66 5c b5 3e 4c 2e 8d 3e 53 e9 96 3e cb 0b 59 3e
       0.35422057 0.27574384 0.29474887 0.21195905
0001a0 80 cd 84 3e 22 32 70 bd ba c2 56 3d 66 c3 80 3e
       0.25938034 -0.05864156 0.0524318 0.25149077
0001b0 19 a2 5b 3e 8e 1c 71 3e 62 10 88 be 86 e2 75 be
       0.21448554 0.23546049 -0.26575 -0.24012193
0001c0 50 09 f2 be 04 aa aa be 19 7a 85 be 56 29 6d 3b
       -0.4727273 -0.33332837 -0.26069716 0.0036187968
0001d0 1a 3e f5 3d 73 b5 5e be 7f fb 1b be 45 1c b8 be
       0.119747356 -0.21748905 -0.15232657 -0.35959068
0001e0 6f 7d cd be b1 9c fa bd 60 f3 0f be 7b 8b 53 be
       -0.4013476 -0.12236918 -0.14057684 -0.20658676
0001f0 26 4c a5 be c8 23 49 bc d8 c3 34 3e ab a6 94 3e
       -0.3228466 -0.012276597 0.17652833 0.29033408
000200 f5 dd d3 3e fe 1f aa 3e e2 d9 82 bd f3 71 93 3e
       0.41380277 0.33227533 -0.06389214 0.28797874
000210 ce f5 91 3e 59 49 d3 3e 7a d9 0c 3f d9 c3 8d be
       0.28507847 0.41266897 0.5501934 -0.27688482
000220 b6 bb 90 bc 88 9a 97 bb 68 ba 07 3c 62 0c 1d be
       -0.017667633 -0.004626576 0.008284189 -0.15336755
000230 ff 9e 94 3e 5a 75 d4 3e df c6 c5 3e 4c 18 b0 3e
       0.29027554 0.41495782 0.3862829 0.34393537
000240 29 65 1f 3e 7e 86 b3 bd b7 be bc 3e 86 20 d9 3e
       0.15565933 -0.08765887 0.36864254 0.42407626
000250 ba 52 d0 3e cb e1 09 3e d3 0a c8 bd 6b e3 70 3c
       0.40688115 0.1346504 -0.097676896 0.014702658
000260 50 dc 47 3e 2c 0a a7 3e af 24 26 3e 27 5b 24 be
       0.19517636 0.32624948 0.16224931 -0.16050397
000270 9c 65 a9 3d 4a 9c c8 3e 5c 3f 17 3f f6 82 a9 bd
       0.082713336 0.3918174 0.59081054 -0.08276932
000280 6b 5d fe 3e 90 0f 16 3f 7b 54 55 3f 46 83 bb 3e
       0.49680647 0.58617496 0.8333203 0.3662359
000290 ef 29 52 bd 78 35 29 3e 6b c8 5d 3e 4c 91 30 be
       -0.051309522 0.16524303 0.21658485 -0.17242926
0002a0 19 ef 3e bf 77 30 ce be 84 34 86 be ac 17 0b bf
       -0.74583584 -0.4027135 -0.2621194 -0.54332995
0002b0 6b ea 6e bf ac 7b 1b bf 94 b9 36 3e b6 36 3c 3e
       -0.93326443 -0.60735583 0.1784423 0.18380246
0002c0 a0 b8 22 be 3c 14 10 bd 24 3a e8 3d a9 93 37 be
       -0.15890741 -0.035175547 0.113392144 -0.17927422
0002d0 e0 91 02 be 64 41 bf be 83 1b 82 be b4 3a d8 bd
       -0.1275096 -0.37354577 -0.25411615 -0.10558072
0002e0 bd 8b 14 bf 80 89 02 3f d0 91 d1 3e 2f cc cf 3e
       -0.58025724 0.5099106 0.4093156 0.40585467
0002f0 7a 08 c6 3c 6d ac ea be e9 ee 89 3e 70 17 31 3e
       0.024173964 -0.45834675 0.26940086 0.17294097
000300 f5 9f 53 be 2e 37 6e bf 7d 48 d8 be 3d e0 0a be
       -0.20666488 -0.9305295 -0.42242804 -0.13562103
000310 1f 0d aa be 86 6c 20 bf 86 fa b1 bd 5b 89 4b 3f
       -0.33213136 -0.62665594 -0.08690362 0.7950646
000320 66 8f 4b 3d 57 cc 6b bd 6d 7b 0c 3e 77 53 04 3d
       0.049697302 -0.05756792 0.13718958 0.03230616
000330 24 70 d6 3d 84 8e a8 be fa 59 9a be ef c2 7a be
       0.10470608 -0.3292123 -0.30146772 -0.24488424
000340 ac 35 bf bc fa 3b 72 be 90 9e 97 3e ee 84 67 3e
       -0.023341022 -0.23655692 0.2961316 0.22609302
000350 6b b8 c5 3e e1 c0 81 3e ac f9 67 bd d9 15 b6 3e
       0.38617262 0.25342467 -0.05663459 0.35563543
000360 a8 b1 cf 3c 80 3b 92 3d 9e a4 02 bf 1c 66 46 3b
       0.025353268 0.07140255 -0.51032436 0.0030273264
000370 80 f1 0c be ed 2c 89 be 70 d3 89 be 0d 8e 32 bc
       -0.13764 -0.26792088 -0.26919127 -0.010898125
000380 b7 c0 51 3f 08 48 85 be a5 5a 37 3d 96 eb 2c bd
       0.81934685 -0.26031518 0.04476418 -0.04221686
000390 fd 7d 8d be 31 33 8b 3e 25 5c 83 be da ce 80 3e
       -0.27635184 0.27187493 -0.25656238 0.25157815
0003a0 ea ca e4 bd ce 48 de be da 55 1c 3f 2a 50 86 be
       -0.11171515 -0.4341492 0.610685 -0.26233035
0003b0 55 e2 8f 3e 79 e2 9f be b3 6e 88 be 77 3e 30 3f
       0.28102365 -0.31227472 -0.26646957 0.68845314
0003c0 41 af bb 3d 4c 8b e4 3e 6e 08 5f be 65 42 67 bd
       0.091642864 0.44637525 -0.2178056 -0.056459803
0003d0 77 be 15 3f c5 b9 d5 3c 1d 69 7d 3e 53 a0 0d be
       0.5849375 0.026089558 0.24747129 -0.1383069
0003e0 30 db d4 3d f3 fb cb 3e 8e ff 4d 3d 7d b6 53 3e
       0.10393369 0.3984066 0.050292544 0.20675083
0003f0 41 31 5a be 1e c4 1c bf 7d b8 a1 bd 51 7b 03 3e
       -0.21307851 -0.6123675 -0.078965165 0.1284001

conv1.0.bias f4 [6]
000000 2c 33 b3 be fe bd f6 bf ae f1 97 bf 8d 62 a6 bf
       -0.3499998 -1.9276731 -1.187063 -1.2998825
000010 6e 18 b7 3d f7 f1 71 bf
       0.089402065 -0.94509834

conv2.0.weight f4 [16, 6, 5, 5]
000000 a1 4b 5e be c3 07 bc bc 38 6a 61 3e 31 08 2c 3d
       -0.21708538 -0.02295292 0.22013175 0.042
000010 80 f6 42 3e 4d 9c ed be 1c cc 4c be 44 47 18 be
       0.19039345 -0.4640831 -0.19999737 -0.14870936
000020 97 af a8 bd 98 56 bb 3d 20 4f 00 bf e0 41 c9 be
       -0.08236616 0.09147376 -0.50120735 -0.3930807
000030 7c 1a 96 be 5b ba 93 3d 4f d9 68 3d 4f 82 8a be
       -0.2931708 0.07213279 0.056847867 -0.27052543
000040 32 05 ea be 96 ce 07 bf f4 ba 49 be b3 1e 23 3e
       -0.4570709 -0.530496 -0.19700223 0.1592968
000050 81 33 bf 3e 0a 6c d6 3d 0d fe 15 be 6a 04 90 be
       0.37343982 0.104698256 -0.14647694 -0.28128368
000060 62 5c 7d 3c a2 60 c1 3c 59 0c 06 3e fe fe a2 3d
       0.01546392 0.023605648 0.13090648 0.07958792
000070 dd ed 67 bc 4b f7 48 3d 2d 6c 1a 3d 12 66 7a 3e
       -0.014155832 0.049063962 0.03770082 0.24452999
000080 37 70 ef bc 97 16 db 3d 02 5a 07 3e 49 33 ee 3b
       -0.029228313 0.10697668 0.13217929 0.0072692973
000090 ec 3d 9e 3d 75 94 0d 3e 29 fb 4d 3d 6d 5d 0e 3e
       0.077266544 0.13826163 0.050288353 0.13902827
0000a0 d4 8d 52 be 44 e7 8b be 5c 4e b5 bd 50 b6 a2 bd
       -0.20561916 -0.2732488 -0.088528365 -0.079449296
0000b0 64 5c c4 bd cf 5e f7 bc 12 e5 a4 3e 4e 4b 05 3f
       -0.095879346 -0.030196575 0.32206017 0.5206803
0000c0 34 22 89 3d 47 39 89 be fc aa b3 3e d7 fe 0a bd
       0.06695977 -0.26801512 0.35091388 -0.03393444
0000d0 a0 4a cf be ae 75 27 be 0b 70 57 bd 76 f4 ea 3e
       -0.40486622 -0.16353485 -0.052597087 0.45889634
0000e0 9d 80 54 be 2a d6 1f be 6d cd ec 3d 7e 28 ca 3d
       -0.20752187 -0.15609041 0.11562619 0.098710045
0000f0 a0 85 b2 3d 7f cf 46 be 4c fa 4e bd cb 00 19 3d
       0.08716893 -0.19415091 -0.05053167 0.03735427
000100 8e 48 3b be d6 11 5a be 8f 0a 5c bc e4 24 ae 3e
       -0.18289396 -0.21295866 -0.013430252 0.3401252
000110 fc 3d b3 3e 83 46 83 3e 2f ef 3c be 17 60 8d bd
       0.35008228 0.25639734 -0.18450616 -0.06903093
000120 bf 1f c6 bd 8b 3e 12 bd 42 21 f0 3e b6 97 c6 3d
       -0.09674024 -0.035704177 0.46900374 0.09696905
000130 09 3e b4 bd 5c 8b 7d 3e e6 86 b9 3d a6 a1 0b 3e
       -0.08800895 0.24760193 0.09058933 0.13635883
000140 22 88 52 bb 52 44 22 be 1d 9d 2d bd 43 4d a2 bd
       -0.0032124599 -0.15846375 -0.042386163 -0.07924893
000150 ec ea cc bc a4 b2 f3 bd f8 f3 24 bd 9a 94 35 bd
       -0.025014363 -0.11899307 -0.04027173 -0.04433117
000160 05 7c e7 bc ef 08 43 be f4 43 31 be 58 83 f0 3d
       -0.02825738 -0.19046377 -0.17311078 0.11743802
000170 f1 c9 71 3e 40 cd be 3e 13 42 16 3e a3 29 6b be
       0.23612191 0.37265968 0.14673643 -0.22965102
000180 98 ef 7c be b5 5f 77 be 08 c6 b2 bd e5 16 e0 bc
       -0.24700773 -0.24157603 -0.08729178 -0.027354667
000190 67 5f b3 be 28 ea b8 bc e4 40 59 3c 2d a1 7c 3d
       -0.35033724 -0.022572592 0.0132601 0.061677147
0001a0 43 a0 3a be 69 dd 6a be 5f e7 9d 3c 16 2d 1b bd
       -0.18225197 -0.22936024 0.019275365 -0.037884794
0001b0 63 38 9a 3d a6 ea 2a 3d 53 c3 17 bf a9 69 8b be
       0.07530286 0.041727684 -0.59282416 -0.2722905
0001c0 fc 1b 37 bd cf 0e 65 3c ab 43 e2 3d c1 7c 97 be
       -0.044704422 0.013980581 0.11048063 -0.29587367
0001d0 9b af 18 bf ff 26 b7 be 69 7b 17 bd f0 cc 3a 3d
       -0.5964295 -0.3577194 -0.036982927 0.0456056
0001e0 00 0e 74 3d b5 8b ba be d7 7a 19 bf fe ae 8f be
       0.059583664 -0.36434713 -0.59953064 -0.28063196
0001f0 b4 e4 87 3c ef 9e d1 bd 11 76 53 be fa 28 76 3d
       0.016588546 -0.10235392 -0.20650508 0.060097672
000200 cd 46 cb 3d 0e 19 0f 3e 27 d8 4b be dc f9 8f 3d
       0.099256136 0.13974401 -0.19906674 0.07030079
000210 ec 8f a1 3d 42 03 06 3e 30 86 c6 bd e3 e5 b4 3d
       0.07888779 0.1308718 -0.09693563 0.0883291
000220 1d fa 77 3e 43 09 10 3e 6c fa 11 be 4f 78 ad 3e
       0.24216504 0.14066033 -0.14255685 0.3388085
000230 8b db 50 3f 1a 12 f9 3d 44 f9 28 be f8 2f 2e be
       0.81584996 0.12161656 -0.16501337 -0.17010486
000240 e0 ae 2e 3e 52 20 e6 3e 47 68 ce 3e 33 9d 1f be
       0.17058897 0.44946533 0.40313932 -0.1558731
000250 68 f5 52 be 83 6c 41 be 67 ab 59 bc 3c 37 55 be
       -0.20601428 -0.1888905 -0.013285494 -0.20821851
000260 4e d8 12 be e4 cb 5a be 08 a4 5e be 00 d0 9d bd
       -0.14340326 -0.2136684 -0.2174226 -0.077056885
000270 6d c6 7a bd cc 2f 89 3d 1b 6c d1 bc 28 d3 7c 3d
       -0.06122439 0.0669857 -0.025564244 0.06172481
000280 1d c5 59 be 2b 0b 95 3c 87 6c e5 3d 50 ea ff 3d
       -0.21266599 0.018193802 0.112023406 0.124958634
000290 2e 21 55 3e 97 49 ed bd 3f 07 eb 3d f7 3e 85 3e
       0.20813438 -0.11586302 0.114759915 0.260246
0002a0 50 e5 ea 3d 5e 76 02 bd cc fc bf 3e c3 8a 27 3e
       0.11469519 -0.031851165 0.37497556 0.16361527
0002b0 51 1c ae bd 1d 1b 1d be a3 bc 5b 3e 1b 8a ed bd
       -0.08501495 -0.15342374 0.21458678 -0.11598607
0002c0 ab f1 ad be de 0b 4c be 52 8b 4a bc be 42 a2 3c
       -0.3397344 -0.19926402 -0.012362318 0.019807216
0002d0 5c 97 46 be 0f 9f c4 be 27 5c 17 be 3b ab 36 3c
       -0.19393677 -0.38402602 -0.14781247 0.011149223
0002e0 88 68 21 3d 2c 22 2f be 7c 3d ad be 7b 45 9c bd
       0.03940633 -0.1710288 -0.3383597 -0.0763044
0002f0 7a be 29 3e 33 42 9d 3e 7a 99 1d 3c cf 05 7c be
       0.16576567 0.30714568 0.009619111 -0.24611591
000300 92 d7 1f 3d 30 13 91 3e 9b 55 14 3e 02 33 19 3e
       0.039023943 0.2833495 0.14485781 0.14960864
000310 e4 7c 4a 3e dc ca b5 3e 62 a3 9e 3e a7 48 27 3e
       0.19774204 0.35506332 0.30984026 0.16336308
000320 1e cc 19 be a3 5b 9b 3e 31 08 21 3e d9 7f 2c be
       -0.15019271 0.3034335 0.15725781 -0.16845645
000330 db 1d 12 be 3d 62 17 3d cb f6 a6 3e 56 bd a0 bd
       -0.14269201 0.03695892 0.32610163 -0.07848613
000340 fc 69 e9 bd b7 3e 2b 3d ed a6 76 3e 1a ff 6b 3d
       -0.11397168 0.041807856 0.24087115 0.05761633
000350 b3 31 99 bd 38 a3 75 bd d3 fa 23 be 86 8c 84 3b
       -0.074801825 -0.05997011 -0.1601365 0.004045072
000360 3a 75 32 bd d6 36 eb bd db 10 83 bb a6 f7 44 be
       -0.043568827 -0.114850685 -0.003999812 -0.19235095
000370 7b 44 87 3e dc d7 2a be f6 de 03 be 8b 5f 80 bc
       0.26419434 -0.16683906 -0.12878022 -0.015670558
000380 9f 75 a6 bd 01 99 b3 be b9 99 3a be 97 e5 22 3e
       -0.08127903 -0.3507767 -0.18222703 0.15907894
000390 24 56 9f 3b c8 00 b9 be c9 0e 03 bd ba 72 5e 3e
       0.0048625637 -0.3613341 -0.031996522 0.21723452
0003a0 9e ee d1 bc 30 06 50 be bd 9f 8e be 44 d8 0f 3d
       -0.025626477 -0.2031486 -0.27856246 0.035118356
0003b0 2b 6f 08 be d0 d9 54 be 3d ba 7b be bf 37 77 be
       -0.13323657 -0.20786214 -0.24582763 -0.24142359
0003c0 d9 f6 1a be 4a 42 ef bd 1c 81 b6 be 8d 81 9b be
       -0.15133227 -0.116825655 -0.35645378 -0.30372277
0003d0 fa 98 19 be 3d 25 fb bd fb 83 d4 bd e5 44 3b be
       -0.14999762 -0.12262962 -0.10376736 -0.18288
0003e0 11 7a 0a be 30 e3 0a be 08 98 8d 3e c7 64 91 3e
       -0.13523127 -0.13563228 0.27655053 0.283972
0003f0 d0 7d 8d bd 40 f1 eb be af 3f b2 be 32 84 ca 3d
       -0.069087625 -0.46082497 -0.34814212 0.098884955

conv2.0.bias f4 [16]
000000 4b c4 5e bf f0 72 5f 3f 78 e0 18 bf f0 ec d1 be
       -0.8701827 0.87284756 -0.5971751 -0.4100108
000010 97 25 0e 40 9c 41 01 bf ff c3 e8 be 1c 10 ce be
       2.2210443 -0.50490737 -0.45462033 -0.40246665
000020 10 43 3e 3f 91 bb 05 3e ad 9a a8 be b5 a8 94 3f
       0.7432108 0.13059832 -0.32930508 1.1613985
000030 0a f5 a8 3e 07 ae 26 3f 39 9e aa bf c0 d6 14 bf
       0.3299945 0.65109295 -1.3329536 -0.5814018

fc1.0.weight f4 [120, 400]
000000 54 d6 ca 3c cd eb ea bb 00 03 44 3e 84 23 03 3e
       0.024760403 -0.007169223 0.1914177 0.12806517
000010 d7 b6 7a 3d 84 cc bb 3a ec 26 cf bc fd 10 6c 3d
       0.061209526 0.0014327918 -0.025287114 0.05763339
000020 4c d9 5b bd c7 57 fb 3b 93 84 83 3a 9e 11 9d bc
       -0.053674027 0.007670376 0.0010034017 -0.01917344
000030 b8 52 83 be 73 c3 c4 3d 93 68 85 bc bd a2 0c be
       -0.25649047 0.096075915 -0.016285216 -0.13733955
000040 b8 05 18 be f8 53 19 be 95 47 e5 bc 17 23 19 3e
       -0.14845932 -0.14973438 -0.027988235 0.14954792
000050 05 b9 c3 3d 7b f7 2b be 86 15 fe 3c cb 05 a1 3d
       0.09556774 -0.16793625 0.031016123 0.07862433
000060 32 2d 23 3e 24 74 b6 3d 15 f8 2e 3e e3 c5 f0 3c
       0.1593521 0.08908871 0.17086823 0.029391235
000070 a9 96 56 3d dd 65 e6 3b cf 66 70 3d a2 95 cc 3d
       0.052389774 0.007031186 0.058691796 0.09989478
000080 fd b7 95 3d 8d b7 a8 3d b4 cd 71 bc fd fe d4 3d
       0.073104836 0.082381345 -0.014758516 0.10400198
000090 a2 11 50 3d 90 f0 3a bd b6 11 1e bd 77 12 2f be
       0.050798066 -0.045639575 -0.03859111 -0.17096888
0000a0 22 0b 13 3d 2e 08 ab 3c bc ca a2 3a 7a 13 9a 3d
       0.03589929 0.020877924 0.0012420039 0.07523246
0000b0 a1 02 c2 bc 30 1a da bb e9 45 dc bd 5c e9 cd 3c
       -0.023682894 -0.006655954 -0.10755522 0.025135688
0000c0 6f 9c ee 3d 1e f5 8a bd 34 15 74 bd ef 7b 8d 3b
       0.11650931 -0.06785034 -0.059590533 0.0043177526
0000d0 22 c0 83 3d 2e fc 10 bd cc 44 82 bd 04 0e 3a bd
       0.06433131 -0.035396747 -0.06360778 -0.045423523
0000e0 32 f7 4d 3b 8e f7 14 3d 14 60 1d bd 31 9e 87 bd
       0.0031427857 0.0363689 -0.038421705 -0.066219695
0000f0 30 da f3 bd 15 e7 ee bd b5 d9 1b be 29 4b 40 be
       -0.1190685 -0.11665169 -0.15219767 -0.18778671
000100 2d 64 7c bd 35 9d a8 3d ca c6 76 bd 4e d9 13 be
       -0.061618973 0.0823311 -0.060248174 -0.14438364
000110 2f f7 05 3d 8c 91 61 bd bd 38 a6 3d 9a 42 e8 3d
       0.032706436 -0.055070445 0.08116291 0.11340828
000120 88 62 88 3e 44 70 e8 3b 87 97 d1 3d 36 26 bc 3d
       0.26637673 0.007093461 0.1023398 0.09186976
000130 9e a6 4e 3e 54 3e 64 3d 3f ff 84 bd 4a bc 1a bd
       0.20180747 0.055723503 -0.06493997 -0.037777223
000140 7b 4a 58 3c 1a 59 ab 3d b7 a7 fc 3c 3a 3d 71 bd
       0.013201351 0.08366604 0.030841691 -0.05889628
000150 bf 94 90 3d 7a b6 92 3d 21 06 a6 bd 90 02 a2 bd
       0.07059621 0.07163711 -0.08106638 -0.07910645
000160 8e c4 bf bd af 8e c7 3d 46 a4 f5 3d b8 08 a0 3c
       -0.09363662 0.097440116 0.11994223 0.019535407
000170 22 b7 a1 3c f3 4e f8 3d 0c dd 8b bd 20 fd 1d 3d
       0.019740645 0.12124433 -0.06829271 0.038571477
000180 2f 4b 47 3e 26 46 4e 3d 1c 38 9d 3c b0 a3 69 bd
       0.19462274 0.050359868 0.019191794 -0.05704087
000190 9a 80 03 3e 50 60 6c 3d 18 71 e2 3d b5 48 80 3d
       0.12842026 0.05770904 0.11056727 0.06263868
0001a0 45 b1 6e 3c 42 5d f2 3d 39 7f 3d bc 19 56 08 3e
       0.014568632 0.11834194 -0.011565977 0.13314094
0001b0 1f 6b 2a 3e 3c ae 85 3b 0c e9 43 bd ff e9 ba 3c
       0.16642426 0.0040796082 -0.047829673 0.022816656
0001c0 91 bd 39 3e d9 3d 9a bd 63 e2 de 3c 78 f9 be bd
       0.1813872 -0.07531328 0.027207559 -0.09324926
0001d0 4d c2 02 be 4e 5b 1c 3e 53 23 14 be 43 ae 54 be
       -0.12769432 0.15269205 -0.144666 -0.207696
0001e0 3c f8 9e be 36 64 f1 bd 05 e8 3f bd 26 73 2c be
       -0.31048763 -0.11786692 -0.04685213 -0.168408
0001f0 91 ff 31 be 3d e9 00 be 7f 21 9d bd a2 70 d1 bd
       -0.17382647 -0.12588973 -0.076724045 -0.10226561
000200 b5 7f c6 3a 9b 0c b5 bd 0f 20 1e be e6 0d da bd
       0.0015144261 -0.08840295 -0.15441917 -0.10647182
000210 97 d9 0e be 27 54 4b bd a1 67 f3 3c 42 a4 95 3b
       -0.13950191 -0.0496408 0.0297125 0.0045667
000220 7e ad be bd 06 d3 83 bd ed 77 3d be 3f 82 c8 bd
       -0.09310435 -0.06436734 -0.1850278 -0.097904675
000230 a0 bc b6 bd 8f a2 08 bd 5c 06 14 be 79 90 ed bd
       -0.08922696 -0.033358153 -0.14455551 -0.115998216
000240 42 8d 88 bd 52 02 b8 bd 4f fe 19 bd b4 92 fc bd
       -0.06667568 -0.089848176 -0.037596043 -0.12332669
000250 26 88 bf 3c fe 24 15 be e1 6c 69 3e 6f cb dd 3d
       0.02338035 -0.14564893 0.2279544 0.108298175
000260 83 b8 e7 3d 3a 39 60 3d d1 74 1a bd 54 a7 09 be
       0.1131449 0.054742076 -0.03770906 -0.13442737
000270 97 18 74 bd 24 7e 89 bb 4f ef 58 bd ae 64 9f bd
       -0.059593763 -0.0041959453 -0.052962597 -0.07782875
000280 8b d1 86 bd c7 38 76 bd fa bd fc bd 38 65 9d 3d
       -0.06582936 -0.06011274 -0.12340923 0.076853216
000290 41 fe 4f bd e4 f6 0f 3e 02 30 91 3a 73 97 ee 3c
       -0.050779585 0.14059025 0.001107693 0.029124951
0002a0 d8 d6 98 3d ed 6c 2e bc a8 ca ef ba 51 56 78 be
       0.07462853 -0.010646087 -0.0018294649 -0.24251677
0002b0 94 d1 12 3e 92 27 72 bd 06 c6 52 3e a1 36 2d bc
       0.1433776 -0.05911977 0.20583352 -0.010572107
0002c0 8a 06 97 3d 9e 61 db 3d 7b 1e 04 be 46 9c f7 3a
       0.07374294 0.107119784 -0.12902252 0.0018891178
0002d0 11 f0 c9 bd 30 d3 9c bc bf 89 bc 3c 40 df 40 bd
       -0.09860242 -0.01914367 0.023014901 -0.047087908
0002e0 34 dd a0 bd 0a 50 e6 bd d6 79 0f be c1 e9 e1 bd
       -0.07854691 -0.11245735 -0.1401132 -0.11030913
0002f0 ad 7b 88 bd 8f e9 29 be 20 94 d4 bc 16 6a 3c 3d
       -0.06664214 -0.16593002 -0.025949538 0.04599961
000300 65 9b ff bc 48 5b 43 be fe fe 19 3d 98 85 ac bd
       -0.031202028 -0.1907779 0.037596695 -0.084239185
000310 d4 1a 2c bc f3 8c 5f 3d 74 20 bf bd 79 9c 4e 3e
       -0.010504443 0.05457778 -0.09332362 0.20176877
000320 e7 dc 09 bd 7c 92 7b bd fa 87 74 bd 6b ef 71 3d
       -0.033657935 -0.061418995 -0.05969999 0.059066217
000330 d1 06 23 bd 9d 19 ed bd 04 a3 4d bd ed 5f 3d bd
       -0.039801423 -0.11577151 -0.050204292 -0.04623406
000340 19 5b c1 3d 27 23 c0 bd f5 ff 6d be 59 22 a7 bd
       0.094412036 -0.09381705 -0.23242171 -0.08160848
000350 1a f4 4b bd 1a 1a 3a be e2 ba b8 bd 8c 29 a9 bd
       -0.04979334 -0.1817402 -0.0902002 -0.082598776
000360 0d 93 3e bb 64 fe 03 be 25 e5 0a bd c7 d7 db 38
       -0.0029079348 -0.12890011 -0.033909936 0.000104829254
000370 96 86 4d bd 75 7d 44 bd 0f 7f 1c bd f8 15 69 bd
       -0.05017718 -0.047971208 -0.03820711 -0.056905717
000380 19 2c 0a be 42 ea 5f bd 9c 43 24 bd 26 61 10 be
       -0.13493384 -0.054666765 -0.04010354 -0.14099559
000390 c7 db 8c 3d 14 e5 ec 3d a9 22 d2 bd 9b 5b cd bd
       0.06877857 0.11567131 -0.10260517 -0.10027238
0003a0 f4 9d 76 bd ba 64 86 3d fe a7 a0 bd 1d 36 d9 3d
       -0.06020923 0.06562181 -0.07844542 0.106060244
0003b0 e7 11 f6 3b 20 cb df bd 54 45 c7 bd 77 f8 7e bd
       0.0075094583 -0.10927415 -0.0973002 -0.062248673
0003c0 f8 86 cf 3c cf 2b 8a 3d d0 52 59 3e e2 e1 a9 bd
       0.025332913 0.06746637 0.21222997 -0.08295037
0003d0 ee ea 1b 3e b3 83 8d 3b 03 4c ee 3d 7c 1e a4 3d
       0.15226337 0.0043186783 0.11635592 0.08013627
0003e0 3a 1d 00 bd 26 2a e7 3c 78 20 1d be ac 93 0f bc
       -0.031277873 0.02821834 -0.15344417 -0.008763235
0003f0 13 40 b5 3c a9 1e d5 bd e5 bc 6d be 31 47 70 be
       0.02212528 -0.104062386 -0.23216589 -0.23464657

fc1.0.bias f4 [120]
000000 63 ed 70 bd 51 96 e9 bc bd 0d 97 bc 62 34 5b be
       -0.05882014 -0.02851406 -0.018439168 -0.21406701
000010 07 02 2f bc ba c3 b4 3d 87 34 b9 bc 69 e5 86 3a
       -0.010681636 0.088263944 -0.022608055 0.0010291758
000020 e1 55 9c be b0 a6 7a bc 7f 69 5a 39 24 31 6c 3e
       -0.3053427 -0.01529853 0.000208294 0.2306562
000030 93 2f 9d bc 97 fa c1 3b c6 04 c9 bd a1 6d 16 3f
       -0.019187724 0.005919765 -0.098153636 0.5876103
000040 3f 03 98 be 19 5a d4 3d bc da 5c 3e 95 57 18 3d
       -0.29689977 0.10368747 0.21567816 0.0371929
000050 c8 a0 b3 3c f2 71 b3 3c f5 4c 85 bd 8d 0f 21 bc
       0.021927252 0.02190492 -0.06508819 -0.009830368
000060 6e 8a 0d 3e d5 b2 16 3e b2 05 c8 bc 43 79 2e be
       0.13822338 0.14716657 -0.024416778 -0.17038445
000070 2a 3c a3 3c 7c b5 4d 3d 4b 1e b2 3d a0 ad 27 3d
       0.01992615 0.050221905 0.08697184 0.040937066
000080 93 c0 e8 3d 2f d8 10 3e d3 f7 18 3d 72 43 38 3d
       0.113648556 0.14144967 0.03734572 0.044986196
000090 ba b6 ab bd cd 90 b2 bd 02 47 8b bd b4 98 3d be
       -0.08384462 -0.08719025 -0.06800653 -0.18515283
0000a0 1b 56 90 bd a4 2c a4 bd 4d 85 8a 3d 0e c0 4f be
       -0.07047673 -0.08016327 0.06763706 -0.20288107
0000b0 a6 02 79 3e fb 50 61 3d fd 3f 71 3e dd d9 3b bd
       0.24317417 0.05500887 0.23559566 -0.045862067
0000c0 9f 6e 38 3e 0e d8 64 3d 89 da 5c 3e 79 94 a1 3d
       0.18010949 0.05587011 0.2156774 0.07889647
0000d0 65 08 93 3d d2 a2 61 bd 2a bd 12 be f0 2e ce bd
       0.071793355 -0.05508692 -0.14329973 -0.10067546
0000e0 ad aa cf bc cc 1a 7c bd ae 1b 49 bd 8d 6b 45 be
       -0.02534994 -0.061548993 -0.049098663 -0.19279309
0000f0 7d 7e 2c 3d 97 fb 9a 3e 80 78 c0 3d 91 94 33 3e
       0.042112816 0.30270073 0.093979836 0.17537142
000100 18 2b 8c ba 14 4b 5a 3e e7 fa 01 3e 59 e8 b1 bd
       -0.0010693995 0.21317703 0.12693368 -0.08686895
000110 67 28 22 3d 06 e0 48 be d2 2e 91 bd e7 d3 af 3d
       0.039589312 -0.19616708 -0.070890084 0.08585339
000120 d6 83 8b bd 95 9f b2 3d 31 39 29 3e 5c 02 de bb
       -0.06812255 0.08721844 0.16525723 -0.0067751836
000130 1e dd 84 bd d2 19 13 3e a9 42 1a be 8b b4 40 3d
       -0.06487487 0.14365318 -0.15064491 0.04704718
000140 c6 a1 e5 3d c6 0f 95 ba d1 9a f2 3d 41 30 1e 3e
       0.112124965 -0.0011372499 0.11845935 0.15448095
000150 25 9f 62 bd d0 c6 0b bd 98 e9 4d bd 64 fb 7e 3d
       -0.055327553 -0.03412515 -0.0502716 0.062251464
000160 d8 6a ad bd 87 ca f4 3c 60 b2 c4 bd 4c 05 e4 3d
       -0.084676445 0.029881729 -0.09604335 0.11133823
000170 44 4a 43 3d ef c2 53 bb 7e 1e 58 bd 38 38 13 3e
       0.047678247 -0.0032312234 -0.052763455 0.14376915
000180 11 d6 36 3c 06 62 d5 bc 76 3f 9b 3c 85 79 24 bc
       0.011159436 -0.026047718 0.018951159 -0.010038738
000190 9f 14 5e bb 8e 94 a3 bc bf 69 f9 bd bf be 0e bd
       -0.0033886803 -0.019968297 -0.121783726 -0.03484988
0001a0 6d 1e 5f bd 18 89 84 bd 81 51 77 3d 7e 20 d5 bc
       -0.054472376 -0.06471461 0.060380463 -0.02601647
0001b0 89 a7 8f bc a4 b3 0d be eb 28 7a bc 8a 46 6d 3d
       -0.017535942 -0.13838059 -0.015268545 0.0579286
0001c0 ad 9d eb bc fd 23 1a bc e7 d0 b3 3b 6f 21 3e be
       -0.02876171 -0.009407994 0.0054875496 -0.18567441
0001d0 11 fb 05 3d ef 9c 34 be a8 af 07 bd 09 f9 8b 3d
       0.03271014 -0.1763799 -0.033126503 0.06834609

fc2.0.weight f4 [84, 120]
000000 00 d0 6b bd 15 c8 36 bd 5d cb 99 3d f3 6d 94 bd
       -0.05757141 -0.044624407 0.075094916 -0.07247534
000010 1b be b7 bc 91 b1 33 bc af 2f ae bb 55 23 53 be
       -0.022429517 -0.010967628 -0.005315743 -0.20618947
000020 b2 eb 39 be 06 81 94 bd b5 22 92 bd 55 c6 65 bd
       -0.18156317 -0.07251172 -0.07135526 -0.056097347
000030 22 cd 7a 3d a9 00 9a bd 97 1b 9e bb 3a de 77 bd
       0.061230786 -0.07519657 -0.0048250663 -0.060514666
000040 3c b8 e3 bd 84 26 4f 3d 32 8b 36 3e 0e 36 56 bb
       -0.11119124 0.05057384 0.17826536 -0.0032686028
000050 5b 69 13 3d f1 e0 1b 3e 05 f1 0e 3d 30 9b 4f bd
       0.035989147 0.15222527 0.034897823 -0.050685108
000060 32 f4 26 3d d2 f4 9b bb ef 78 17 be 4a d1 18 3c
       0.040760227 -0.0047594095 -0.14792226 0.009327242
000070 88 20 29 bd b2 5f ec 3d 9e 08 84 bd e8 a4 b7 bd
       -0.04129079 0.1154169 -0.06446956 -0.08967
000080 5b f3 f9 bc 77 d5 49 3d 30 06 e8 3d 9c e3 63 3d
       -0.030511549 0.04927584 0.11329305 0.055636987
000090 50 00 09 be b7 e1 ac 3d f9 e3 ba 3d da 6b 09 be
       -0.13379025 0.08441489 0.091255136 -0.13420048
0000a0 30 35 cf 3d 3f 05 dd 3b 82 9a 60 3d 3d b3 9c bd
       0.101175666 0.00674501 0.05483485 -0.076513745
0000b0 51 18 c7 bd e2 89 c4 3d 15 d1 1a be 6f 07 0a bd
       -0.09721435 0.095966116 -0.15118821 -0.033698495
0000c0 f9 32 85 bd 3f b0 16 be f1 92 1f be fd fe 44 3e
       -0.06503863 -0.1471567 -0.15583397 0.19237895
0000d0 65 5c 8b bd 2c e3 66 bd ab 56 46 bd 87 fb 99 bd
       -0.06804732 -0.05636899 -0.048422497 -0.07518678
0000e0 95 2c ab 3d 2c f2 c4 3d 7b 92 86 3d f7 cb 94 bd
       0.08358113 0.09616503 0.06570908 -0.07265466
0000f0 af 86 18 bc 60 9b 0d be d6 d5 5a be 4c f6 40 bd
       -0.009309455 -0.13828802 -0.21370634 -0.047109887
000100 bc 12 1d bd 56 d1 29 be c0 5f e6 bd 1a 59 0f be
       -0.038347945 -0.16583762 -0.112487316 -0.13998833
000110 3e 3d 69 bd 8f 18 92 3d 98 aa f5 3d f4 76 9a bd
       -0.05694317 0.071335904 0.11995429 -0.0754222
000120 36 62 02 be 92 1e 07 be 0d e4 35 b9 26 5a 99 bd
       -0.12732777 -0.13195255 -0.0001734646 -0.074878976
000130 5c ed 0c be f0 96 e2 bd 7a 79 1b 3d 72 bd 29 bd
       -0.1376242 -0.11063945 0.037957646 -0.041440435
000140 dc 21 e1 3d 94 31 34 3d a1 3a c0 3c f7 20 58 3c
       0.10992786 0.043992594 0.023465456 0.013191453
000150 f8 b4 43 3d fe bc a3 3d 44 6c a5 bb 4d 83 fc bd
       0.047780007 0.07995032 -0.0050483067 -0.12329731
000160 ba 3d 89 bd 9b ab 81 bd 31 1a 10 bd fc 9b 68 bd
       -0.067012265 -0.06331559 -0.035181228 -0.056789383
000170 bd 5e b3 bd 0e f4 24 3d ce 6f 1c 3d 59 19 2f 3d
       -0.08758304 0.04027181 0.038192563 0.042748783
000180 c6 df e3 3d ed ba 09 be 48 87 a1 bc dc 7b bd bd
       0.11126666 -0.13450213 -0.019717827 -0.0925214
000190 79 0b 3d 3d 4e 40 81 bc 89 ba 42 be 15 eb f4 3d
       0.04615352 -0.015777733 -0.1901647 0.11958901
0001a0 3a d0 ca 3d 41 17 ea bd 25 2d 60 3d 3f 4c 24 3c
       0.09902997 -0.114302166 0.054730553 0.010027944
0001b0 ce 47 48 bc 8a 7c 17 be bf fd a8 3c bd a3 14 be
       -0.012224151 -0.14793602 0.020628808 -0.14515586
0001c0 23 0a d7 bd fd ec 38 3e 9f ca c0 bd 7d 42 b2 bd
       -0.1049998 0.18059154 -0.09413647 -0.08704088
0001d0 56 ac 26 3e 7c 8a 16 bd 21 5f e6 bc 2a 4a f4 bd
       0.16276678 -0.036753163 -0.028121533 -0.11928208
0001e0 5b 48 d9 3d eb ac f8 bb 0f aa 0d be b7 97 a4 bd
       0.10609504 -0.007588973 -0.13834403 -0.0803675
0001f0 5e 00 d8 3d 7a 68 41 be 8b d6 23 3e d0 25 06 3d
       0.10546945 -0.18887511 0.1599981 0.032750905
000200 e5 cc 69 3b 80 35 0c be ff bd 48 be 7e e5 db 3d
       0.0035675105 -0.13692284 -0.19603728 0.107371315
000210 c4 65 e4 bd 2e 7e e6 3c ae 19 bb bd 8c 8f cb 3d
       -0.11152223 0.028136339 -0.091357574 0.09939489
000220 e7 b0 3a 3d 11 de 9c be 22 54 f1 bd b5 5b c6 bd
       0.045578863 -0.30638173 -0.11783625 -0.096854605
000230 68 5e 0c 3d 53 46 7f 3e 84 fd f4 bd 9c c0 12 3e
       0.03426972 0.2492917 -0.11962417 0.14331287
000240 35 31 3e 3d c3 8c 2f be ba 4e b1 bd a4 b8 d7 3d
       0.046433646 -0.1714354 -0.08657594 0.10533264
000250 9a ec c5 3d 36 1c d4 3c b3 f9 c3 bc c7 72 a1 be
       0.09664269 0.025892358 -0.023922777 -0.3153288
000260 c4 d2 ea bd ed d2 aa be 98 59 16 bd 62 8b 94 bd
       -0.114659816 -0.3336405 -0.036706537 -0.07253148
000270 e3 ed 08 3b 3c 14 14 3e 44 c9 69 3e 92 49 1a be
       0.0020893745 0.14460844 0.22830683 -0.15067127
000280 9d 60 cf 3c 98 1e 35 3e 18 b1 7f be 0a 63 23 be
       0.025314623 0.17687452 -0.249699 -0.15955749
000290 a9 3f e8 bd cb d4 f7 3d 82 c9 80 bc d3 07 56 3d
       -0.11340267 0.12101134 -0.015721086 0.052253556
0002a0 1d d9 ff 3d 37 91 3d be 88 a1 41 3d 92 99 5c bd
       0.12492583 -0.18512426 0.04727319 -0.053857394
0002b0 21 a5 5e 3c e6 19 5e bd 74 16 27 bd 80 21 32 bc
       0.0135891745 -0.054223917 -0.040792897 -0.010872245
0002c0 33 20 6d bc a4 91 2d 3e 89 42 0d 3e 93 90 14 3c
       -0.014473009 0.16950089 0.13794912 0.009067672
0002d0 ac 45 3c bd 06 d9 74 bb b4 57 42 bc fd 6e 09 be
       -0.04596488 -0.0037360801 -0.01186173 -0.13421245
0002e0 4a 8a f7 bd c0 d8 9c bd 94 72 3f bd 21 b0 14 be
       -0.120869234 -0.07658529 -0.04674013 -0.14520313
0002f0 58 7e f1 bc b0 fc ed bc 66 e9 8c 3e 79 6b b6 bb
       -0.02947919 -0.029051155 0.2752182 -0.005567011
000300 45 8f e1 3a c5 7a 57 be b1 49 9f 3d f5 7a 0c bc
       0.0017208835 -0.21042927 0.077777274 -0.008574237
000310 31 ba d3 bc a2 83 84 be d9 2c 61 3d b5 1a 50 3d
       -0.025845619 -0.25881678 0.05497441 0.05080672
000320 bc d6 c5 bc 24 88 9e bd d2 94 d2 bd 3a ba 23 bd
       -0.024150245 -0.077408105 -0.102822915 -0.03997252
000330 8d 7e 1a 3e 02 2a 83 3d 8a 54 90 bd f1 03 5a be
       0.15087338 0.06404497 -0.070473745 -0.21290566
000340 a5 e7 01 be 9a 79 0e 3e 84 4f 10 3e 70 a8 88 bc
       -0.12686022 0.13913575 0.14092833 -0.01668188
000350 d3 28 24 be 5f 81 ec bd 63 80 08 3c 69 d1 26 3e
       -0.16031198 -0.11548113 0.008331391 0.16290821
000360 e7 c7 e2 bd 57 8c c7 bb 76 90 ab 3d f7 15 6e bd
       -0.110732846 -0.006089728 0.08377163 -0.058126416
000370 bd e1 a9 3d b5 e5 07 be f6 ae 20 be f5 5d d9 3c
       0.08295009 -0.1327122 -0.15691742 0.02653406
000380 6b d6 8b 3d 15 65 3b bd 7e 92 83 bd dc 3c 5d 3d
       0.06828006 -0.045750696 -0.064244255 0.05401312
000390 1e e4 bb bd 22 f6 62 3d 92 be 15 bd 17 41 c7 bd
       -0.09174369 0.05541051 -0.036558695 -0.09729212
0003a0 c2 67 16 be 34 1b e5 3d a0 0a 4a be 21 06 15 be
       -0.14688018 0.11186829 -0.19730616 -0.14553119
0003b0 f4 5d 97 3c 30 51 59 3d a8 5d 2f be 50 5d 26 be
       0.018477418 0.053055942 -0.17125571 -0.16246533
0003c0 43 01 2f 3e 1e 80 95 bd 3b 1c c1 bd 28 54 e7 bd
       0.17090325 -0.07299827 -0.09429213 -0.112953484
0003d0 4d 15 ae 3d d3 03 47 be 40 fa 44 be 08 f5 70 3c
       0.085001566 -0.19435053 -0.19236088 0.0147068575
0003e0 6e 86 62 be 88 78 63 bc ab 31 14 3e 01 76 f9 3b
       -0.22121593 -0.013883717 0.14472072 0.007612944
0003f0 20 ef 65 be 64 44 0b bd f0 77 1a 3e aa e0 ba 3d
       -0.224545 -0.03400077 0.15084815 0.091248825

fc2.0.bias f4 [84]
000000 1c 91 2e bc a7 d8 0b 3e e7 ae 09 3f f3 96 ec 3e
       -0.010654714 0.13656865 0.53782505 0.46208915
000010 2d 5c 9a 39 67 f5 1f 3f f2 f5 cf 3d 10 fd aa 3e
       0.00029441845 0.6248383 0.10154332 0.33396196
000020 d7 5d f5 3d 95 c6 f9 bd f5 80 b9 3e ba 06 25 be
       0.11980789 -0.1219608 0.362312 -0.16115847
000030 51 51 14 3e 87 97 47 3d a4 ed 2c 3f 41 e5 83 3e
       0.14484145 0.048728492 0.6755011 0.25760844
000040 61 eb 1b 3d 9a fb c8 bc 1e 61 48 3e 24 82 b1 3e
       0.03806627 -0.024534035 0.19568297 0.34669602
000050 2d 21 8a bd ef 96 e8 3e 98 a9 b2 3e 99 6d 6e 3e
       -0.06744609 0.45427653 0.34895015 0.23283996
000060 34 e6 8f bb 80 80 12 bc bd 64 87 bd eb 6d 2c 3e
       -0.004391456 -0.00894177 -0.06611011 0.16838805
000070 94 0b 7a 3f 01 14 fa 3c 7c ac 0b bd 90 31 eb 3d
       0.97673917 0.030527117 -0.03410004 0.11484063
000080 ae 6a c4 3d e7 51 30 3e ec 5e 8d 3e 59 47 64 bc
       0.0959066 0.17218743 0.27611482 -0.013933026
000090 35 8f 95 3f 3c c0 82 3d 6a fe d5 3e 03 40 8a bc
       1.1684328 0.06384322 0.41795665 -0.016876226
0000a0 79 e1 17 3f 85 f2 b5 3d 4e ac 8d 3e 42 4c 9b 3d
       0.5932842 0.088841476 0.2767052 0.075829044
0000b0 5b 63 77 3f ff 52 88 3d 6b bc b7 3e 21 22 96 3b
       0.9663598 0.06656455 0.3588594 0.004581705
0000c0 cb 7c 8a 3e 02 06 e1 bd 65 07 ad bd a5 24 fa 3d
       0.27048334 -0.10987474 -0.08448676 0.12214021
0000d0 2a 1a f4 3e 01 13 d2 3e 8d 14 cc bd b0 2c d5 3c
       0.47676212 0.41030124 -0.09964857 0.026022285
0000e0 45 8f 49 bd f2 39 c7 3e 40 97 6c 3c 5e e2 ef 3e
       -0.049208898 0.38911396 0.014440358 0.46852392
0000f0 fd 6d ca 3d 6a 1e 95 3e ef 5e 49 bd e6 d8 5e 3e
       0.0988426 0.29124767 -0.0491628 0.21762428
000100 ab 32 1d 3f c4 12 11 3e e4 43 c6 3d d2 68 64 bc
       0.6140544 0.14167315 0.09680918 -0.013941007
000110 4b 12 7f 3d db 56 07 3f b3 96 e5 3d 69 dd f9 bd
       0.062273305 0.52866906 0.11210384 -0.12200434
000120 90 89 03 3f 8d 5f 79 3e 1e 28 ed bc b6 f0 19 bc
       0.5138178 0.24352856 -0.028949793 -0.009395769
000130 98 25 22 3e 95 84 9a bc e0 65 76 3e b3 1d 06 3f
       0.15834653 -0.018862048 0.240623 0.5238907
000140 bc ac 4f be ba b5 af 3e 8d 85 49 3e 55 cb 09 3f
       -0.20280737 0.34318334 0.19679852 0.53825885

fc3.weight f4 [10, 84]
000000 55 b0 69 3c f6 a7 8d be ca 49 cf bc f3 e6 21 bd
       0.014263232 -0.27667207 -0.02530374 -0.03952689
000010 19 62 b4 bd e4 b8 80 3b 90 a5 d0 bc 63 ec d9 3d
       -0.08807773 0.0039282907 -0.025469571 0.1064079
000020 ec 92 02 be 2b 89 a5 3d 7a 64 48 3e 83 f7 11 3e
       -0.12751359 0.08082803 0.19569579 0.14254574
000030 60 b2 3d 3e 74 1d d0 3c 34 37 08 3e 4c 16 02 be
       0.18525076 0.02540467 0.13302308 -0.12703818
000040 4b 97 15 bd 19 aa ce 3d 27 42 40 3e 01 27 6c 3e
       -0.036521237 0.10091037 0.18775235 0.23061754
000050 e9 fd 0a 3e 18 a9 35 be 6a c0 95 3e a9 4d 47 3e
       0.13573422 -0.17740285 0.29248363 0.19463219
000060 6c a8 50 3e 99 5f fb 3a cb f7 2c 3e fd 6c e6 3d
       0.20376748 0.0019178271 0.168914 0.112512566
000070 da f1 a1 be e5 a3 69 3d 8a dd 8a 3e 7d 67 12 3e
       -0.3162983 0.057041068 0.27122146 0.1429729
000080 05 d0 85 3a a0 ce 02 bd b6 80 09 bd cb b7 cf 3d
       0.0010209089 -0.031935334 -0.033570014 0.101424776
000090 92 7e 38 be a8 83 be 3d a8 5c 7f 3e fc 87 27 be
       -0.18017033 0.09302455 0.2493769 -0.16360468
0000a0 2b fd b0 bd b0 f2 3a bc aa ad 6d 3e e3 a7 df 3d
       -0.08642038 -0.0114104 0.23210779 0.10920694
0000b0 5c c6 9b be 37 09 38 3e 85 72 46 3e 92 f1 e7 3c
       -0.30424774 0.17972265 0.19379623 0.028313432
0000c0 85 cd 6a be 2f 62 8b 3d f2 e0 db bc af 68 e3 3d
       -0.22929962 0.068058364 -0.02684066 0.11103951
0000d0 e8 b2 ae 3d f0 4c 45 be e0 81 28 3e 26 bb 94 3d
       0.085302174 -0.1926763 0.16455793 0.07262258
0000e0 6a 61 2c 3d 29 33 ce 3d 0f 01 19 bd 74 49 56 be
       0.04208509 0.10068352 -0.037354525 -0.20926458
0000f0 b0 11 f4 3c d7 8c 3a be bc ca 6a bd f6 02 1b 3b
       0.02979359 -0.18217789 -0.05732225 0.0023652888
000100 be 9b 0f 3e c0 b2 83 bc cf 9b e5 3d 1a 38 00 3d
       0.14024255 -0.016076446 0.11211359 0.031303503
000110 bd cd 95 bd b7 cd 5e 3e e9 1a 7a 3d f1 f9 1c 3d
       -0.07314632 0.21758161 0.06106082 0.0383243
000120 f9 82 84 bd 5a 59 3a 3e 03 82 b4 bd 0e 13 1b 3d
       -0.064702936 0.18198147 -0.0881386 0.03785997
000130 27 2d 13 be b4 d6 1b be 2b 32 c5 3d f5 ec 91 be
       -0.14372693 -0.15218621 0.096287094 -0.28501096
000140 0d dd 0d 3e b9 2c 7f be 96 0a 05 bd 3a 0c fd 3c
       0.13853855 -0.24919404 -0.0324808 0.03088962
000150 5b 8c 3d 3e 8b e9 5d 3e b7 e4 0c 3b 52 f9 5e be
       0.18510573 0.21671121 0.002149863 -0.21774796
000160 10 f5 af bd 84 28 61 be 13 62 61 be 32 c2 34 3d
       -0.08591664 -0.21988112 -0.22010069 0.04413051
000170 17 02 bd 3d b5 73 90 3e f2 a4 2b be ca 00 4d 3e
       0.09228914 0.28213277 -0.1676214 0.20019832
000180 2b f0 b4 bd ee 28 3e 3d 77 ba a2 bd 9d c2 9a bd
       -0.08834871 0.046425752 -0.079457216 -0.07556651
000190 8d aa 01 bd 01 6b 03 3e a1 a8 10 bd 4a 08 90 3e
       -0.03165679 0.12833788 -0.035317067 0.28131324
0001a0 6b e6 af 3d fa 70 9d be f3 34 9c 3c ae d7 89 3e
       0.085888706 -0.30750257 0.019068217 0.26922363
0001b0 0a 30 71 bd 25 a0 65 3e 4b 9d 9f 3e 3f f3 07 3e
       -0.058883704 0.22424372 0.31174693 0.13276385
0001c0 37 53 b2 be 74 f3 4e 3e 00 90 12 3d 60 c0 cb bd
       -0.34829113 0.20210057 0.03578186 -0.09948802
0001d0 bb 25 0b bb 4e 8e 96 bd c2 e8 fc bd 6a b5 b4 bc
       -0.0021232206 -0.07351361 -0.123490825 -0.022059161
0001e0 67 33 4a be e9 8e a7 bd 3f d8 89 be 09 01 7a 3e
       -0.19746171 -0.08181555 -0.26922795 0.24414457
0001f0 20 94 a4 3b a8 3c ce bd c4 40 77 bd b3 78 3f 3d
       0.0050225407 -0.10070163 -0.0603645 0.046745967
000200 8b 37 40 bd 6b 1f c9 3b dd 85 78 be 68 01 c4 3d
       -0.04692797 0.0061377785 -0.24269815 0.09570581
000210 84 00 01 3e 62 e4 22 3e 4e 9b 3b 3e 4a d4 2d be
       0.12597853 0.15907434 0.18320963 -0.16975513
000220 b0 3f 85 3d a3 05 bb bc 37 96 f1 3d 47 7c 1e 3e
       0.06506288 -0.022829836 0.11796229 0.15477096
000230 cb ac cb 3c d1 9a 45 bc 66 5b ce 3d f7 17 99 3d
       0.024862668 -0.012060837 0.100760266 0.07475274
000240 6b 4e 0f bd 2f dc 4c bd 09 a5 d1 3c a2 73 c7 bd
       -0.034986895 -0.05001467 0.02559139 -0.09738852
000250 be 22 d5 be 1f 69 97 3d c9 f7 29 bd 2d 64 11 3e
       -0.4162807 0.07393097 -0.041496072 0.1419837
000260 36 6b 4e 3e fd d5 09 3c 1a b5 7b 3d 0d 8d a8 bd
       0.20158085 0.008412835 0.06145201 -0.08230028
000270 06 f9 45 be f8 0d 47 bd a3 68 ef 3d f6 c9 b8 bd
       -0.19333276 -0.048597306 0.1168988 -0.09022896
000280 a5 35 fc 3d de 9f 18 3e 16 9b 9a be 1d c1 82 be
       0.123149194 0.14904734 -0.30196446 -0.2553796
000290 cc be 39 3e 55 c9 41 3d ea f8 f8 bc f7 38 f6 3c
       0.1813919 0.047311146 -0.030392129 0.03005646
0002a0 f8 16 bc bc cd d1 ac bd bf 60 67 3e a9 22 68 3d
       -0.022960171 -0.08438454 0.225955 0.05667368
0002b0 d4 36 3e 3e 74 48 13 be 47 33 9a 3c 11 04 93 bd
       0.18575603 -0.14383107 0.018823279 -0.0717851
0002c0 1b 9d 6b 3e 18 41 80 bd 3b 29 81 bd 71 e9 b3 bd
       0.2300915 -0.06262416 -0.06306692 -0.0878476
0002d0 8a 4c 21 3e a7 c5 3a 3e b5 2e 31 3e cd dc 42 3d
       0.15751854 0.18239461 0.17302974 0.047573853
0002e0 8b af 6d bb d1 c2 af 3c 2e bc 31 3e 59 43 ec bd
       -0.0036267962 0.0214552 0.17356941 -0.11536283
0002f0 e3 28 08 3c 6a bd 50 bd 00 55 01 3e 82 85 fd bd
       0.008310529 -0.05096189 0.12630081 -0.1237898
000300 ac 46 b7 3a c0 1c df 3c a5 82 0d be 4f 55 08 be
       0.0013982854 0.027235389 -0.13819368 -0.13313793
000310 3b 5e 90 3e 8b 65 26 be 05 87 0a 3e 46 c1 80 3e
       0.28196892 -0.16249673 0.13528068 0.25147456
000320 24 82 7f be dd 7b 39 3e 5f 0a 0c 3e c1 58 4c 3e
       -0.24951988 0.18113656 0.13675831 0.19955732
000330 3e 44 2c 3e 17 d0 2e bc ca 80 0a 3e 3a cc 9e bd
       0.16822907 -0.01066973 0.13525692 -0.07753797
000340 98 fb ac 3d 76 fb 0d be 54 ae 44 3e a1 9d 41 be
       0.08446425 -0.13865456 0.19207126 -0.18907787
000350 90 41 3e 3e 95 b2 9a bd 33 5b 4e 3e d1 58 41 3d
       0.18579698 -0.07553593 0.20151977 0.047203843
000360 73 a9 90 3c f2 48 ab bd 1f 03 30 3d 12 c9 34 3e
       0.017658925 -0.083635226 0.042971727 0.17654827
000370 47 c1 8f bd 2a 07 30 3b 18 a3 03 3e fd 76 26 be
       -0.070192866 0.002685974 0.12855184 -0.16256328
000380 0c 8b 94 bb 6c 10 d7 bd 7c 2b 17 bd 47 97 8a 3d
       -0.0045331772 -0.10501179 -0.036906704 0.06767135
000390 be b4 93 3d 92 58 c7 3d ff 1e bc bc 87 9a f2 bd
       0.07212208 0.0973369 -0.022963999 -0.1184588
0003a0 01 60 8b 3e f6 36 22 be 74 9a 11 3e 02 b2 26 bd
       0.27221683 -0.15841278 0.14219075 -0.040697105
0003b0 c3 a0 9c bd 5b 73 29 3e 38 ac 0b be 61 0c 2f bc
       -0.0764785 0.16547911 -0.13639915 -0.010684104
0003c0 46 08 39 3e 0d dd e9 bd 50 3f 60 3e 01 8a d6 bd
       0.18069562 -0.11419115 0.21899152 -0.10475541
0003d0 03 8e 3b bd f4 ca b3 3d d0 58 c5 3d d2 4e 3e 3e
       -0.04578973 0.087789446 0.0963608 0.18584755
0003e0 52 f8 b3 3d 12 f6 45 be 8a e2 f8 bd 1f e8 70 bd
       0.08787598 -0.1933215 -0.12152584 -0.058815118
0003f0 b5 5e 1c 3e 3d e1 6b 3c fd f2 30 bc b6 91 37 3e
       0.15270503 0.014396963 -0.01080012 0.17926678

fc3.bias f4 [10]
000000 c5 1f 14 be 76 3c 82 bf 88 31 25 bd 68 f7 45 3f
       -0.14465244 -1.0174701 -0.04033044 0.77330637
000010 a9 c3 3c 3f 00 f5 06 3e 0b 86 f0 3d 65 6e 0a bf
       0.73736054 0.13179398 0.11744317 -0.540747
000020 66 00 04 3f 89 0d f4 be
       0.5156311 -0.47666577
